sr_model_final.pth (torch, 126856 bytes, 4 tensors)

conv1.weight f4 [64, 3, 9, 9]
00000000: 8ec5 63bc 2a3a 803c 4aaf bebb 3121 0cbd
00000010: c99d 873c 90a6 f8ba 48ac 933c 8ff8 853d
00000020: 0c68 723b 3096 e0bc 3068 5cbd 20dd 82bd
00000030: d79f 27bd c4b3 573d e10a c5bc 975d 5fbd
00000040: 2bcd 80bc 2331 64bd 7292 fdbc 6c9e df3b
00000050: 30a6 2fbd 407b 303d 8d00 a73c 61f9 583d
00000060: 021f 7bbd e907 18ba 5ef7 8a3d edc7 0c3d
00000070: 6e09 463d 3ec7 203c fd5b 1f3d a7df 553d
00000080: 2a08 63bd a63a 44bd d0cb 25bc fb19 333d
00000090: 2647 22bd c1f7 16bd 14eb f13c c502 18bd
000000a0: 8f97 69bd bbf2 9e3c 053c 9e3c fc00 1d3d
000000b0: 96a0 28bd a7be c13c e07a b83c c100 e63c
000000c0: 8d9d e3bc cd47 d23b 52aa 253d 81d7 1a3d
000000d0: a29c 7f3b ce70 ddbc 3b32 f5bc 34b0 5ebc
000000e0: 42b6 563d afe9 72bd 8cd2 1a3d 5078 353d
000000f0: ceaa 013d 22df 28bd 03d0 293d 6264 ea3c
00000100: abb8 263d 69fc f93c 140b 033d 0873 3e3c
00000110: 936b fbba cc50 45bd 425e aabc 4e4b 223d
00000120: 4d20 dfbc dfae 62bd 88cd 453d e124 5b3d
00000130: f2ce 613d 88f8 0abc a277 7d3c 3e65 01bd
00000140: 9a52 c3bc 012c 833b 4727 5c3d 03c4 3fbd
00000150: 13a6 703d 67a4 73bc cfd6 77bc f2d3 53bd
00000160: 3797 cb3c c784 3a3d d03a 563d b007 853c
00000170: d1ed 713d 8627 bc3c 8e65 d5b9 40e0 8cbd
00000180: f4c0 79bd 75fd 603d b35e 513d 514a 1abb
00000190: d942 a3bc 7f24 8b3c 1a02 933c e7e7 8a3c
000001a0: 2205 bebb 9fcd 3fbc 053e 1cbd f33c 943d
000001b0: 50a6 4f3d ae85 93bc f029 503d dba1 ac3b
000001c0: 961f b83b b163 dabc a31a 06bd 78e6 433d
000001d0: 52a9 803d 6cb9 343d 2569 883c d0ec 40bc
000001e0: 53c9 0d3c 5392 ec3a f89c 073d 579f 0c3d
000001f0: 1f5e 9a3c 75d9 b8bb ee25 9ebc ebc0 f63b
00000200: bc44 51bc 202d 0abd c85e a3bb c320 e3bc
00000210: 7817 aebc 43e0 423d 3152 e0ba d99f 67bd
00000220: 34f7 613c b8fd fc3c aa70 0fbd 9557 6dbb
00000230: f090 16bc dc9f dbbb cc7f e3bc 4ff9 f8bc
00000240: 7eaf 8f3c 2199 6bbc 39c8 62bd e429 85bd
00000250: 966e 26bc a253 b6bc 6d53 73bd fd52 3ebd
00000260: 6c84 c73c b78d 313d 25d4 5fbd 1fd2 273d
00000270: 3929 173d 4940 2d3d 4e67 cd3c ded8 f03c
00000280: 66cd a5bc 84b9 403c e8ea 5fbd 7c0a 783d
00000290: eb06 8aba 7858 583d 0058 cc3c ece7 9cbc
000002a0: 993d 7abd f114 843d b424 efbc 60f8 b6bc
000002b0: 9dc0 be3c 92fc ef3c 6c5e 103d 974a 4f3d
000002c0: 3de1 343b f84e 89bb e1af dc3c 9545 433d
000002d0: 42fd bd3c a8d0 0c3d 4369 cfbc bcc1 543c
000002e0: 5b74 1f3c 9dda 0b3d 28f4 553c 1c95 62bd
000002f0: 3b5a 49bd c13f 083d 0426 e23b 5879 7abc
00000300: f727 a3bc 2f86 0f3d 9a8d 40bd d822 5abd
00000310: 9f93 82bc 8be2 693d b80a 91bc 5865 c4bb
00000320: bb06 b9bc 3a6a 373d 2a88 51bd da35 56bd
00000330: 12ac 8abc 676c 51bd 5be7 07bd dc3a afbc
00000340: 7f08 d9bc 1adf 75bd 595d 523d 2df3 54bd
00000350: eb27 3cbd 3e28 4b3c 6997 17bd 7012 33bd
00000360: a168 6ebd a262 0f3d db9c 43bd b11b 4fbc
00000370: b1d0 0e3d 2e74 143c a293 183c 696b 29bd
00000380: 7e63 543d 3910 52bc b8ad 7c3c 21aa 02bd
00000390: 5227 baba 5c01 82bc 7593 39bc d6c2 2dbd
000003a0: 805c ccbb 0ed2 803d 26d5 a83c 8d72 de3b
000003b0: 43d5 83bc e8cb 68bd 8d87 d5bc b070 973c
000003c0: 6dcf 92bc 3d60 053d c99a a33c b5fd 02bc
000003d0: 3ccd 42bd 6127 f23c 560f 233d 5628 ec3c
000003e0: b3db 90bb b42d 51bd 7d17 85bc 717e d13c
000003f0: 95c8 aa3c 57fd ecbc 5241 18bd acdd 0fbc
-0.013902081 0.015652735 -0.005819236 -0.03421134 0.01655473 -0.0018970538 0.018026486 0.065415494
0.0036988286 -0.027415365 -0.0538103 -0.063898325 -0.04092392 0.052661672 -0.024053039 -0.054532614
-0.015722832 -0.055710923 -0.03095362 0.0068243053 -0.042883098 0.04308629 0.020386005 0.0529722
-0.06130887 -0.00057995185 0.06785463 0.03437035 0.048348837 0.009813128 0.038906086 0.052215245
-0.055427708 -0.047907494 -0.0101193935 0.04372595 -0.039618634 -0.03685737 0.02953104 -0.037112016
-0.057029303 0.019402852 0.019315729 0.038331017 -0.04116877 0.02365048 0.022519529 0.028076531
-0.027785087 0.0064172507 0.040445633 0.037803177 0.0039003273 -0.027031329 -0.029931178 -0.013591815
0.05241991 -0.05930489 0.03779845 0.044304192 0.031657033 -0.04122842 0.04145814 0.02861232
0.040703457 0.030515866 0.031992987 0.011624105 -0.001918184 -0.048172757 -0.020796899 0.039622597
-0.027237082 -0.05534255 0.048291713 0.053501967 0.055129 -0.008482106 0.015470417 -0.031590693
-0.023843098 0.0040030484 0.053748395 -0.04681779 0.05875213 -0.01487074 -0.015126898 -0.0517158
0.024852378 0.045536783 0.05230218 0.016239017 0.05906469 0.022968065 -0.0004070219 -0.0687871
-0.06097503 0.054929215 0.051115703 -0.0023542831 -0.019929336 0.016985176 0.017945338 0.016956283
-0.0057989517 -0.011706739 -0.038145084 0.07238188 0.050695717 -0.01800808 0.050821245 0.005268318
0.0056189997 -0.026658865 -0.032740247 0.047827214 0.06282295 0.044122145 0.0166517 -0.0117752105
0.008653956 0.0018048979 0.03310868 0.034331646 0.018843709 -0.0056411573 -0.019305196 0.007530322
-0.012772735 -0.03373444 -0.004985664 -0.027725583 -0.021251425 0.047577154 -0.0017114339 -0.056548927
0.013791848 0.030882701 -0.035019554 -0.0036215533 -0.009189829 -0.0067024063 -0.0277709 -0.030392317
0.017539736 -0.0143797705 -0.05536673 -0.06502131 -0.010158202 -0.022256676 -0.059405733 -0.046465863
0.024355136 0.04334804 -0.054645676 0.04097187 0.036904547 0.042297635 0.025073674 0.029400285
-0.020239543 0.01176298 -0.054667383 0.060556874 -0.0010530626 0.052818745 0.024944305 -0.019153558
-0.0610939 0.06449307 -0.029192306 -0.022335231 0.023285205 0.02929524 0.035246298 0.050608244
0.0027600073 -0.004190322 0.026939334 0.04767378 0.023192052 0.034378678 -0.025318747 0.012985643
0.009732331 0.034144033 0.0130587 -0.055317983 -0.049158316 0.033263925 0.0069015045 -0.01528772
-0.019916518 0.035040077 -0.04701004 -0.053255886 -0.015939532 0.057100814 -0.017705306 -0.0059935264
-0.022586217 0.04477904 -0.051155247 -0.05229745 -0.016927753 -0.05112877 -0.033179622 -0.021390371
-0.026493309 -0.06002722 0.051358555 -0.051989723 -0.045936506 0.012399731 -0.03700963 -0.043718755
-0.05820525 0.035006173 -0.04775701 -0.0126408795 0.034866992 0.0090609025 0.009312542 -0.0413622
0.051852696 -0.012821251 0.015422277 -0.03190053 -0.0014202392 -0.015869789 -0.01132666 -0.04242214
-0.006236613 0.06290065 0.02060945 0.006788558 -0.016092902 -0.056835085 -0.026065612 0.01848635
-0.017921174 0.032562483 0.019971268 -0.007995059 -0.047559008 0.029559793 0.039809547 0.028827827
-0.0044207214 -0.051068977 -0.016246552 0.025572987 0.020847598 -0.028929396 -0.03717167 -0.008780878

conv1.bias f4 [64]
00000000: fa4b 64bd 45d3 fe3c b380 223c c625 543c
00000010: 9c5a 33bd 0712 0bbd b291 8b3d bb94 11bd
00000020: 70f4 3a3d 6231 a13c 5e9d c53d e4fa c53c
00000030: 1192 643d dc7c 34bd e7da 1d3d e938 80bc
00000040: 4275 6f3d 74ac 133c d10e 1fbd dcb0 14bd
00000050: 4194 843d 7ea5 813d 0261 ea3d 214c 19bd
00000060: 0521 983d ae27 55bb 82ea df3b 2d1f 6cbd
00000070: ec6d 833c 8e32 bd3c 32d7 63bd 7e35 9abb
00000080: 46e7 6dbd fbfe df3a 6674 a73c 5ec2 373d
00000090: e726 6abc 030f e63d 548b ab3c acc0 ea3d
000000a0: 2d66 f23d 1a20 203c 08df c93d 6485 033d
000000b0: 29cc 30bc db26 d5bc 6e7d 2bbd 7640 79bc
000000c0: cc76 6c3d 38e3 5e3d cd71 673d a1d6 393d
000000d0: 5caf 27bd 19e2 a9bc b37d 923d a71e b13c
000000e0: 0c84 04bd 13fa 7c3c 8cda 58bd 7cee 803d
000000f0: 49c7 b73c 9df1 cd3d a1f4 443d 0a52 413b
-0.05573652 0.0311066 0.00991838 0.012948459 -0.043787584 -0.03395274 0.068148986 -0.03554223
0.04564327 0.019676868 0.09649156 0.024167486 0.055803362 -0.044064388 0.03853884 -0.015652137
0.058461435 0.009013284 -0.03883249 -0.03630148 0.0647359 0.06330393 0.11444284 -0.037426118
0.07428173 -0.0032524872 0.0068333754 -0.05764692 0.016043626 0.023095395 -0.055625148 -0.004706084
-0.058081888 0.001708954 0.020441245 0.044863097 -0.014291502 0.11233332 0.02094046 0.114625305
0.11835895 0.009773279 0.09856993 0.032109633 -0.010790863 -0.026019504 -0.041867666 -0.015213123
0.05773048 0.05441591 0.056505013 0.0453707 -0.04093872 -0.020737695 0.071528815 0.021621061
-0.032352492 0.015440482 -0.052942798 0.06295487 0.022433894 0.1005585 0.04808486 0.0029498362

conv2.weight f4 [3, 64, 9, 9]
00000000: 690c 5fbc ccbb f1ba 2da4 32bc db7a 1f3c
00000010: 1639 4e3c aa20 423c 5a16 1f3c 3a2e 03ba
00000020: dae5 aebb 8d2a c5bb 1e76 abbb 9c30 ea3b
00000030: c8d9 06bc 7b80 f13b 321e 183c 8162 7dba
00000040: 9d44 b1bb 84c6 87ba 31dd c23b eb31 d33b
00000050: cfb0 ae3b e850 f4ba f1eb 003c 45fa af3b
00000060: b9ae f33b 8aa7 25bc 1f2b 48bc 9136 5bbb
00000070: 0f3e 3b3c 735e e1bb 8519 843b 305c 583c
00000080: 6322 48bc 6a45 0dbc 07e4 f0bb 87e8 eabb
00000090: aa4a c0bb 9b80 4d3c 2b20 29bc 74c2 10bc
000000a0: a87d 1f3c 6dbb 463c 7b26 303c 32f2 883b
000000b0: b74c 333c 6856 0cbc 99f2 abba 4872 a8bb
000000c0: 1c15 493c ad6e 0e3c 85f4 05bc c4ca 773a
000000d0: 8e62 85bb e955 273b 5447 803c 993c 12bc
000000e0: 293f 31bb 3f7b b6bb 97d1 0b3c 28c6 21bc
000000f0: 09a0 0bbc 33bf 343b 9dc1 c33a 5c58 503c
00000100: c604 c13b a2f5 8d3b 1aa9 a33a dda0 95bb
00000110: d5c2 58ba b2fe 043c fa63 1f3b e180 2bbc
00000120: 7e1e ccba c565 c13a 6613 42bc 7fd8 af3a
00000130: 7fa0 d3bb dada a8bb 941e febb c2d4 10bc
00000140: 9506 c03b 3e8a 21bc 326b 843b bcb1 00bc
00000150: a89b 363c 747d ab3b eda0 3abc 88e4 42bc
00000160: 3763 923b 11ef 32bc 77a5 7fbb dcea d3bb
00000170: b45d 6a3c 2eb6 6dba 2e79 a23b ee71 563c
00000180: 82f4 b33b d062 0abc 3999 9dbb 0028 02bc
00000190: 1811 0cbc c2cc 09bc 74ba 23bc 9d57 07ba
000001a0: 9fa5 32bc 289d 353c c9bb 8b3b ec37 613b
000001b0: c778 3e3b 7b94 16bc b4e7 7abc 2172 9fba
000001c0: 4535 7ebc 7fcf 0eba 81cf dc3b 58ce b73b
000001d0: ed2d 31bc 9971 89bb cf9a 193a 2545 57bc
000001e0: eb3f c7bb 8dca 70bb 6524 3cbc 8404 23bc
000001f0: 09b8 bbbb e3c0 e03b 39fd b4bb 2b05 83bb
00000200: 1cb5 663b 2c84 30bc bf00 77b9 7639 d53b
00000210: 5c08 3c3c 874d debb 550b b8ba 6a6c 0e3b
00000220: 1338 093c 21f1 31bc 7424 76bc 0295 083c
00000230: 9892 c23a f745 36bc 0177 213c 1962 683b
00000240: 713f 01bc 021e 11bc b4d9 91bc 017a d53b
00000250: 9a49 963b 65ca 5e3b a247 2abc 4d8b cd3b
00000260: 7c87 373c 5feb 3d3c 5eef dbbb 95b5 443b
00000270: 05ca 11bc 0e4c 0f3c 2dd9 04bc 9e29 d7bb
00000280: d218 e8ba aca6 0dbc 0dc8 143a ab59 8d3c
00000290: 469b 16bc 3c9b b9bb fa86 633a b653 623c
000002a0: 01a9 413c 4110 1bbb d363 ee3b 60f8 a6bb
000002b0: 128f 9e3b f9d4 343c 56e2 14bc 969d 043c
000002c0: b313 cb3b 8838 3dbb 7e1e 80bc 957d 53bc
000002d0: b7c2 2e3c 989d ac3c 860e 8cbb 9a0e 133c
000002e0: 49f3 8f3c 1516 d33b a577 12bc 7489 00bd
000002f0: df7b c3bc 152d bd3c da59 a73c e3fc 473a
00000300: 8bf6 6f3c 6da9 173d ecd7 013d 7a77 3a3c
00000310: 399c d3bb 5a4d 74bb 0af1 d3bb ceb1 b3ba
00000320: 3487 feb8 1291 253c 242e 023d 3bbc 653c
00000330: cecc 563b 79e8 9f3b 4778 543b ef50 c839
00000340: ad1c 85bc 98ee bbbc bdb9 853b 4c7d b93c
00000350: e980 ff3b 53d0 c2ba b8d4 d13b eef8 a73c
00000360: eeda c93c 5f0b 11bc 2dc2 513b d6a4 983c
00000370: 1551 173c e7f0 4e3c 5471 a83c 039d b53c
00000380: 6212 e43c d71c b7bb ace6 61bc 639f 09ba
00000390: aa33 d73c 765b b13c 46e1 9c3b aee0 4a3c
000003a0: f3f5 40bb 5c9d d7ba c8b3 68bc f43b 85bc
000003b0: 7e28 95b9 2825 6c3a 4974 313c a216 243c
000003c0: 6f4f 2a3b 0c68 aa3c a060 c6bb d651 a1bb
000003d0: 90b4 383c f94d edba 73d4 e43a af36 32b8
000003e0: f262 c03c da37 1b3b 6a12 52bb e5f8 0a3b
000003f0: 6c72 a6bb b0ed c13b d6c3 593c 3ffc d63a
-0.013613799 -0.0018442809 -0.0109034 0.009733881 0.012586853 0.011848608 0.009709919 -0.0005004142
-0.005337459 -0.0060170353 -0.0052325865 0.007146908 -0.008230634 0.0073700524 0.009284543 -0.00096658623
-0.0054097907 -0.0010358845 0.005946778 0.0064451597 0.005331136 -0.0018639835 0.007868753 0.0053704106
0.0074366 -0.010110745 -0.012217312 -0.0033449272 0.01142837 -0.0068777143 0.0040313625 0.013205573
-0.01221523 -0.008622507 -0.0073514017 -0.0071688327 -0.0058682756 0.012542869 -0.010322611 -0.008835424
0.009734549 0.012129647 0.010751362 0.0041792626 0.010943583 -0.008565523 -0.0013118564 -0.0051405765
0.012273099 0.008693379 -0.008175974 0.00094525167 -0.0040705865 0.0025533384 0.015659012 -0.00892558
-0.0027045703 -0.0055688913 0.008533857 -0.009873904 -0.008522042 0.0027579784 0.0014935021 0.012716379
0.0058904616 0.00433226 0.0012486309 -0.0045662955 -0.00082687783 0.008117365 0.0024321065 -0.010467739
-0.0015573052 0.0014755061 -0.011845445 0.0013415961 -0.0064583416 -0.0051530423 -0.00775511 -0.008839788
0.0058601596 -0.00985962 0.004041099 -0.007854875 0.01114551 0.005233461 -0.011390907 -0.011895306
0.0044673937 -0.010921256 -0.0039008537 -0.0064672064 0.014304567 -0.00090679794 0.0049582934 0.013088686
0.005491794 -0.00844641 -0.0048095253 -0.007944107 -0.008548997 -0.0084106345 -0.009993184 -0.00051628967
-0.010903745 0.011084832 0.004264329 0.0034365607 0.0029063688 -0.009190674 -0.015314031 -0.001216475
-0.01551563 -0.00054477894 0.0067386036 0.005609315 -0.010814172 -0.00419445 0.0005859555 -0.013139044
-0.0060806177 -0.0036741823 -0.0114832865 -0.009949807 -0.005728726 0.0068589314 -0.0055233506 -0.003998419
0.0035203164 -0.0107737 -0.00023556034 0.006507094 0.011476602 -0.0067841443 -0.0014041463 0.00217321
0.008375186 -0.010860712 -0.01502334 0.0083363075 0.0014844714 -0.011125079 0.009855033 0.0035458861
-0.007888661 -0.008857252 -0.017804004 0.006514788 0.0045864107 0.0033995148 -0.010393055 0.0062727095
0.011201736 0.011591761 -0.0067118844 0.0030015458 -0.008898263 0.00874616 -0.008108419 -0.0065662405
-0.0017707592 -0.008645695 0.0005675562 0.017254671 -0.0091922935 -0.0056642573 0.0008679476 0.013813904
0.011820079 -0.002366081 0.0072750836 -0.0050955266 0.0048388327 0.011037105 -0.009087166 0.008094212
0.0061974167 -0.0028872807 -0.01563954 -0.012908359 0.010666541 0.02107124 -0.0042741923 0.008975649
0.017572062 0.0064418414 -0.008939658 -0.031381086 -0.023862777 0.023092786 0.020428587 0.00076289306
0.014646183 0.03702681 0.03170006 0.0113810245 -0.006457832 -0.003727755 -0.006467943 -0.0013709606
-0.00012136847 0.010105388 0.031782284 0.014021928 0.0032775882 0.004880008 0.0032420324 0.00038207273
-0.016249025 -0.022940919 0.0040809796 0.022642754 0.0077973497 -0.0014863111 0.006403532 0.020504441
0.024640527 -0.008852809 0.0032006607 0.018633287 0.00923564 0.012630678 0.020561852 0.022169596
0.027840797 -0.005588155 -0.013787907 -0.0005249886 0.026269753 0.021650057 0.004787597 0.012382669
-0.0029443472 -0.0016450095 -0.014203019 -0.01626394 -0.00028449664 0.0009008222 0.010830947 0.010015162
0.0025987288 0.020801567 -0.006053999 -0.0049230857 0.011273518 -0.0018104903 0.0017458334 -4.2489435e-05
0.02348468 0.0023684413 -0.0032054433 0.0021205482 -0.005079558 0.005918227 0.01329132 0.001640208

conv2.bias f4 [3]
00000000: de8e 303c 7c18 1cbc b734 fb3b
0.01077625 -0.009527322 0.007666196
